model/model.pth (torch, 213169 bytes, 42 tensors)

module.attention.weight_matrix f4 [32, 32]
-0.4266242 -0.027339153 -0.12410938 -0.10592342 -0.14817406 -0.059201542 -0.08621302 -0.16420536
-0.03371027 -0.023754291 0.001183777 -0.007834871 0.00050154765 0.011855207 0.0049674073 0.09067542
-0.19195467 -0.149529 0.036335032 -0.015297564 -0.04672321 0.20113362 0.04256169 0.009920608
0.08500519 -0.20392476 0.014778861 0.0263264 -0.1425855 0.0032681553 0.0025854672 -0.20805418
0.079466105 -0.119389124 -0.00082539814 0.012388648 -0.008760172 0.051397026 0.014181989 -0.022476401
-0.10570986 0.01730289 0.05657043 0.003806473 0.00021222411 -0.012182826 -0.026820887 -0.06577995
-0.039419003 0.0103105735 0.031021193 -0.05924941 -0.020217652 -0.004575394 0.025640775 0.02275377
0.06501252 -0.056456916 -0.054149374 -0.05312314 0.027256127 -0.0027727261 -0.04196345 0.019779146
-0.0419754 -0.017583538 -0.010933621 0.11764332 -0.009058353 -0.11428589 -0.016776146 -0.0673605
0.018133279 -0.024858372 0.120059624 -0.08030781 -0.00043694145 0.042781647 -0.04746945 0.014205005
-0.026506614 -0.0037591138 -0.0756377 -0.08691457 0.12369723 0.11027236 -0.011940885 -0.0903615
0.053255294 -0.16561022 0.1337296 0.019700602 0.09569492 -0.006327867 0.048165157 0.042272963
-0.032876328 -0.06608678 0.075726144 -0.19158375 -0.042762514 0.010051573 -0.0055512325 0.02861774
0.055665914 0.042091463 -0.12953167 0.03984998 -0.00010979661 0.027856875 0.095003255 0.07867708
-0.0889932 -0.05594812 -0.05841543 -0.16161661 -0.12429642 -0.08024365 -0.029317923 -0.04791686
0.010524342 0.025323331 0.13304289 0.008248086 -0.07355355 0.0029231603 -0.105064586 0.085171446
0.07477927 -0.112186894 0.0015685963 0.006512473 -0.4025442 0.0065281787 -0.17151754 -0.07398733
-0.15040612 -0.057305954 0.014256708 0.07126467 0.00056730374 -0.056898244 0.053288404 0.07240194
-0.084869586 0.009160784 -0.14236826 -0.057779193 0.048631683 -0.08052026 0.03974098 0.05507064
-0.06413495 -0.1405585 -0.026893975 -0.06135153 -0.01613871 -0.0005083138 -0.03104715 -0.059890218
0.05535208 0.018724209 -0.05907009 -0.00040478475 -0.076197185 -0.12169863 -0.04986118 0.034235783
-0.007603157 -0.0061683343 0.01170672 0.023281744 0.0005553694 -0.033248983 -0.02561495 0.03554047
0.07045086 0.022484116 0.012290924 -0.03104422 0.014554164 -0.020323945 -0.053533703 -0.041034456
0.030309318 -0.04580837 0.023211557 -0.011751902 0.020168304 0.000117860975 -0.034334235 8.9405585e-05
0.10660329 -0.095946886 0.057116497 -0.12784812 0.012687756 0.017511737 -0.15383382 -0.02180328
0.026616136 -0.077916354 -0.055360936 0.07414736 0.0005731173 -0.064336605 -0.057575278 -0.05502869
0.12773122 -0.0426871 0.052174393 -0.020745449 -0.00878586 -0.014288989 -0.11055312 0.022164568
-0.054305185 0.08679275 -0.044151798 -0.09641701 -0.111590944 0.0027695503 -0.016686194 -0.066377506
-0.015097881 -0.042949308 -0.03387551 0.059008926 -0.0020103096 -0.0037689959 0.04118581 -0.023654437
0.0011949119 0.025174752 0.029910011 0.00044307762 2.720773e-06 -0.0109591875 -0.006988689 -0.00030831588
0.0077748066 0.02616267 -0.019057276 0.020446604 0.02082164 -0.027808191 0.025038943 -0.009357504
-0.020339306 -0.024603004 -0.041798905 -0.04153822 0.015583696 -0.0024654185 -0.010312818 -0.0113823125
00000000: 7d6e dabe 5cf6 dfbc 0f2d febd 61ee d8bd
00000010: f1ba 17be 517d 72bd 7490 b0bd 7325 28be
00000020: c813 0abd 5c98 c2bc f728 9b3a d55d 00bc
00000030: 4b7a 033a 583c 423c a2c5 a23b 09b4 b93d
00000040: c48f 44be 211e 19be 0bd4 143d a2a2 7abc
00000050: d660 3fbd f9f5 4d3e 2b55 2e3d 0c8a 223c
00000060: 3317 ae3d a7d1 50be 0923 723c 76aa d73c
00000070: ef01 12be 8c2e 563b f170 293b 280c 55be
00000080: 20bf a23d 4982 f4bd 885f 58ba c2f9 4a3c
00000090: d386 0fbc b085 523d 935b 683c 6e20 b8bc
000000a0: 697e d8bd cabe 8d3c 65b6 673d 0576 793b
000000b0: 7a88 5e39 7a9a 47bc 7ab7 dbbc a3b7 86bd
000000c0: d275 21bd aeed 283c 2820 fe3c 82af 72bd
000000d0: 7d9f a5bc 30ed 95bb 9a0c d23c 1d66 ba3c
000000e0: 4925 853d 5e3f 67bd bccb 5dbd a697 59bd
000000f0: 3e48 df3c a0b6 35bb dee1 2bbd e007 a23c
00000100: 66ee 2bbd 5a0b 90bc ee22 33bc fbee f03d
00000110: 7c69 14bc b80e eabd 216e 89bc 4df4 89bd
00000120: 3e8c 943c c9a3 cbbc d2e1 f53d 6c78 a4bd
00000130: 4a15 e5b9 cf3b 2f3d 536f 42bd 1cbc 683c
00000140: 6624 d9bc 775b 76bb f0e7 9abd 4400 b2bd
00000150: f954 fd3d 7ad6 e13d b4a3 43bc 730f b9bd
00000160: 3922 5a3d ba95 29be 6af0 083e 2863 a13c
00000170: b3fb c33d ff59 cfbb d448 453d 6a26 2d3d
00000180: 54a9 06bd 8158 87bd 4f16 9b3d 882e 44be
00000190: bf27 2fbd 5aaf 243c 1de7 b5bb c06f ea3c
000001a0: f101 643d 1968 2c3d f3a3 04be bc39 233d
000001b0: 9b42 e6b8 1a34 e43c 1191 c23d 7321 a13d
000001c0: 1142 b6bd db29 65bd 0545 6fbd d37e 25be
000001d0: 1f8f febd c856 a4bd 242c f0bc 7844 44bd
000001e0: 4a6e 2c3c e072 cf3c 653c 083e fb22 073c
000001f0: 3ea3 96bd 7e92 3f3b 1a2c d7bd 5e6e ae3d
00000200: e025 993d 3ec2 e5bd 5c99 cd3a 9566 d53b
00000210: 461a cebe 55ea d53b 4ba2 2fbe ab86 97bd
00000220: 1004 1abe a6b9 6abd f894 693c 36f3 913d
00000230: 1cb7 143a 220e 69bd f144 5a3d 7847 943d
00000240: 1bd0 adbd 1d17 163c fcc8 11be e0a9 6cbd
00000250: 0432 473d cee7 a4bd 70c7 223d c091 613d
00000260: 2f59 83bd 91ee 0fbe c150 dcbc be4b 7bbd
00000270: 5435 84bc 5d40 05ba 9856 febc 724f 75bd
00000280: ddb8 623d 8363 993c 7bf3 71bd 4a39 d4b9
00000290: 450d 9cbd 223d f9bd 3d3b 4cbd d23a 0c3d
000002a0: e723 f9bb bd1f cabb 8bcd 3f3c 5bb9 be3c
000002b0: 3696 113a 1630 08bd 72d6 d1bc e292 113d
000002c0: 8a48 903d 9c30 b83c df5f 493c 7350 febc
000002d0: 9774 6e3c 677e a6bc 2846 5bbd bf13 28bd
000002e0: 3f4b f83c 8fa1 3bbd 2a26 be3c 0d8b 40bc
000002f0: 0038 a53c 212c f738 0ea2 0cbd 427f bb38
00000300: d352 da3d cd7f c4bd fdf2 693d 9eea 02be
00000310: 4ee0 4f3c c674 8f3c 9d86 1dbe cb9c b2bc
00000320: 150a da3c 9c92 9fbd 26c2 62bd 92da 973d
00000330: 403d 163a e9c2 83bd 0ed4 6bbd c365 61bd
00000340: f9cb 023e abd8 2ebd d1b4 553d 5cf2 a9bc
00000350: 91f2 0fbc 5d1c 6abc ad69 e2bd 7892 b53c
00000360: 1d6f 5ebd 66c0 b13d 84d8 34bd 4876 c5bd
00000370: cb89 e4bd 5881 353b 7cb1 88bc eef0 87bd
00000380: 1a5d 77bc 9deb 2fbd 0cc1 0abd 58b3 713d
00000390: 66bf 03bb 4201 77bb 74b2 283d f3c6 c1bc
000003a0: 979e 9c3a 483b ce3c d705 f53c df4c e839
000003b0: 8696 3636 2a8e 33bc 5f01 e5bb 75a5 a1b9
000003c0: cec3 fe3b 1953 d63c 011e 9cbc a37f a73c
000003d0: 2592 aa3c 01ce e3bc 781e cd3c 3750 19bc
000003e0: 9e9e a6bc 3d8c c9bc 5435 2bbd fb23 2abd
000003f0: c252 7f3c dc92 21bb 18f7 28bc e17c 3abc

module.tensor_network.weight_matrix f4 [32, 32, 16]
-0.05923459 -0.048374712 0.09718309 -0.020236174 0.14603813 1.3363e-41 -3.2586784e-14 0.06516584
0.058772147 0.07083593 -0.058446005 -0.047505744 -7.4516097e-06 1.2308e-41 -0.008064223 1.391e-42
0.13257238 0.0762833 -0.07324012 -0.03649844 -0.0017961762 -8.18e-43 3.2150935e-38 -0.013632977
0.008624281 -0.08890454 -0.03386876 -0.047801383 1.9463888e-30 3.493e-42 0.0035877433 -3.31e-43
0.07112204 0.09045909 -0.010177242 -0.094022855 -0.021095086 6.223e-42 -8.227e-42 -0.05312153
0.025082784 -0.07077767 -0.017627975 0.0071364306 -5.461664e-23 -1.0335e-41 -0.0010013405 2.828e-42
-0.007763424 0.006610247 -0.039059453 -0.012322101 0.049350925 5.196e-42 -7.131e-40 -0.012213781
0.00033552235 0.1107044 -0.00076536456 -0.038638633 -7.7264527e-19 -1.1002e-41 0.019723728 -1.4509e-41
0.13497715 -0.120749794 0.01925961 -0.12306074 0.008149501 4.09e-42 -7.9107954e-17 -0.07003109
-0.045464884 -0.0026700122 -0.027359134 0.0015609583 3.9035586e-10 6.487e-42 -0.059732765 -1.2954e-41
0.055057555 -0.10299582 -0.09048601 -0.05124408 0.034729324 -4.563e-42 1.25088e-40 0.030528389
-0.064147815 0.037749454 -0.012162552 0.11007719 5.961958e-21 -1.7777e-41 0.017333044 1.2479e-41
-0.07238916 -0.07338967 0.047814287 0.15167123 0.019449692 -3.412e-42 5.572e-42 -0.12862527
0.019796986 0.07178176 0.032294624 0.06769964 -8.335691e-21 -1.3975e-41 -0.004586919 4.658e-42
0.0045038257 -0.036174305 0.035055723 0.02324706 0.026712116 1.1547e-41 -1.3681e-41 -0.041346386
-0.021347128 0.04739155 -0.027957013 -0.039032906 1.3637e-41 -2.3871e-41 -0.0035266522 -5.03e-42
0.08812399 0.008743315 0.010692243 -0.07725713 -0.03157842 -1.3297e-41 8.450757e-39 0.03525981
0.027667224 -0.03364296 -0.029516583 0.0015119421 1.7538171e-10 -1.56e-42 -0.02255376 -1.5716e-41
0.015204212 0.020942263 0.051329855 -0.0027240443 0.018494654 5.378e-42 2.947e-42 0.06098509
0.041060098 0.0067919446 -0.039584924 -0.05198136 -8.4364464e-23 1.4321e-41 0.0066563184 -1.5749e-41
-0.09666098 -0.0071957465 0.08928573 -0.13437353 0.05014894 -5.04e-43 -5.046e-42 -0.054414816
0.02674616 -0.08625334 -0.019475829 0.1542502 4.8911643e-22 1.61e-42 -0.048892815 1.3426e-41
-0.0068152715 0.14831062 -0.0832326 -0.5017421 -0.17025302 3.4076354e-19 -6.616546e-07 0.04845308
0.13267453 0.19128744 -0.0838689 -0.004289377 -0.00015565375 -1.3896582e-24 -0.103164785 -4.3525144e-22
-4.2641124e-05 0.0006124861 0.0022000812 -4.208596e-05 -0.003091087 -2.6414e-41 -7.517e-42 0.0011909708
-0.0005363562 -0.00091936876 0.00049382227 -0.0017401715 1.35e-43 -8.9088e-41 -0.00024360971 4.1173e-41
-0.062992245 -0.11092785 -0.024615468 0.119568825 -0.10889374 -5.04e-43 1.302e-41 -0.021856142
0.0650257 0.011691219 0.0463841 0.04140147 -6.906777e-17 -7.996e-42 -0.0140339965 -1.3918e-41
0.008249847 0.060862437 -0.02230274 -0.033397432 0.03667903 -7.124e-42 6.637075e-36 0.020395545
0.02009944 0.030664053 -0.045435432 -0.0067970306 8.881157e-17 -8.207e-42 0.0031617794 -1.5987e-41
0.026165409 0.012602826 -0.039315548 -0.013866299 0.0061366744 2.45e-43 1.1e-41 0.034462318
-0.06276697 -0.012520073 0.015317303 0.09246692 -1.778075e-14 2.65e-43 0.014074806 -1.75e-41
00000000: f89f 72bd 9024 46bd ee07 c73d 55c6 a5bc
00000010: 058b 153e 4025 0000 01c2 12a9 ab75 853d
00000020: 10bb 703d 6e12 913d 1465 6fbd 6295 42bd
00000030: d708 fab6 4f22 0000 ce1f 04bc e103 0000
00000040: 0ec1 073e 6b3a 9c3d ebfe 95bd 637f 15bd
00000050: ac6d ebba 4802 0080 dd0b 2f01 da5c 5fbc
00000060: db4c 0d3c 9513 b6bd f8b9 0abd 62cb 43bd
00000070: eae8 1d0e bd09 0000 5820 6b3b ec00 0080
00000080: 6fa8 913d 9e42 b93d 72be 26bc 0e8f c0bd
00000090: 9acf acbc 5911 0000 ef16 0080 f695 59bd
000000a0: 697a cd3c e2f3 90bd 8b68 90bc b8d8 e93b
000000b0: 100e 849a cf1c 0080 693f 83ba e207 0000
000000c0: 5264 febb c59a d83b cefc 1fbd a3e2 49bc
000000d0: 3224 4a3d 7c0e 0000 d5c3 0780 4f1c 48bc
000000e0: 0ce9 af39 fdb8 e23d bfa2 48ba 8b43 1ebd
000000f0: 6d0b 64a1 ab1e 0080 a893 a13c 7228 0080
00000100: 7337 0a3e ab4b f7bd 54c6 9d3c 4507 fcbd
00000110: 7c85 053c 670b 0000 1869 b6a4 766c 8fbd
00000120: 6339 3abd 5ffb 2ebb 4320 e0bc 1299 cc3a
00000130: b499 d62f 1512 0000 58aa 74bd 1c24 0080
00000140: 0884 613d 79ef d2bd bb50 b9bd 50e5 51bd
00000150: 5640 0e3d b80c 0080 b25c 0100 ac16 fa3c
00000160: ee5f 83bd 2c9f 1a3d 7145 47bc 2670 e13d
00000170: 853c e11d 8e31 0080 07fe 8d3c c922 0000
00000180: c540 94bd 534d 96bd ead8 433d b44f 1b3e
00000190: f654 9f3c 8309 0080 880f 0000 58b6 03be
000001a0: 4a2d a23c 5102 933d 5e47 043d 1ca6 8a3d
000001b0: ee74 1d9e f526 0080 de4d 96bb fc0c 0000
000001c0: d494 933b 822b 14bd 9796 0f3d 9e70 be3c
000001d0: 5ed3 da3c 3020 0000 2326 0080 d45a 29bd
000001e0: 2ce0 aebc a41d 423d 1b06 e5bc f8e0 1fbd
000001f0: 0426 0000 8b42 0080 681f 67bb 060e 0080
00000200: 5a7a b43d 1f40 0f3c 852e 2f3c fc38 9ebd
00000210: 6058 01bd 1125 0080 4605 5c00 976c 103d
00000220: 60a6 e23c 33cd 09bd c3cc f1bc 5c2c c63a
00000230: 90d5 402f 5904 0080 aac2 b8bc cf2b 0080
00000240: 161b 793c 1c8f ab3c 413f 523d e185 32bb
00000250: 1a82 973c fe0e 0000 3708 0000 80cb 793d
00000260: a22e 283d f68e de3b cd23 22bd 68ea 54bd
00000270: 13fb cb9a ec27 0000 3f1d da3b e72b 0080
00000280: 31f6 c5bd 4cca ebbb 70db b63d 3799 09be
00000290: fa68 4d3d 6801 0080 110e 0080 12e2 5ebd
000002a0: c31a db3c 97a5 b0bd c68b 9fbc c4f3 1d3e
000002b0: 8dd3 131c 7d04 0000 d543 48bd 6d25 0000
000002c0: a452 dfbb bdde 173e da75 aabd 2c72 00bf
000002d0: cf56 2ebe bb26 c920 8f9c 31b5 bd76 463d
000002e0: d5db 073e dbe0 433e 75c3 abbd e78d 8cbb
000002f0: fc36 23b9 080a d797 0f48 d3bd f38b 039c
00000300: 8fd9 32b8 3f8f 203a 3d2f 103b 7585 30b8
00000310: d693 4abb a249 0080 f414 0080 591a 9c3a
00000320: 419a 0cba cb01 71ba da73 013a 7716 e4ba
00000330: 6000 0000 57f8 0080 7c71 7fb9 c672 0000
00000340: 1402 81bd 242e e3bd 61a6 c9bc 80e0 f43d
00000350: ae03 dfbd 6801 0080 4b24 0000 a70b b3bc
00000360: 322c 853d 878c 3f3c 41fd 3d3d 9694 293d
00000370: 6a42 9fa4 4a16 0080 d9ee 65bc cc26 0080
00000380: 5e2a 073c e44a 793d 3cb4 b6bc bfcb 08bd
00000390: c03c 163d dc13 0080 ac27 0d05 8f14 a73c
000003a0: 95a7 a43c 2e33 fb3c 811a 3abd a0b9 debb
000003b0: 19c9 cc24 e116 0080 db35 4f3b 912c 0080
000003c0: d758 d63c 157c 4e3c 5709 21bd 792f 63bc
000003d0: 2816 c93b af00 0000 aa1e 0000 5c28 0d3d
000003e0: f88b 80bd fe20 4dbc 6df5 7a3c 4c5f bd3d
000003f0: 9e27 a0a8 bd00 0000 049a 663c c830 0080

module.tensor_network.weight_matrix_block f4 [16, 64]
0.0012725145 -0.0016647895 0.004412367 -0.02719489 -0.035792913 0.0006917958 0.003643075 -0.010406417
-0.016738957 0.017888872 -0.017530575 -0.018691083 0.0011965417 0.013160338 0.012001458 0.0027696048
-0.0051217694 -0.026415532 0.023643088 0.010873917 0.008338539 -0.006321715 -0.0068182964 -0.011520154
-0.010555231 -0.013237365 0.018916333 0.022491671 -0.01143253 -0.0022491075 -0.0071247364 -0.006726617
-0.0039979643 -0.0024733574 0.022596747 0.012133372 0.0524595 0.0063052624 -0.008097136 0.0057755485
0.027348002 -0.021263724 -0.002123852 -0.014391443 0.0013065566 -0.009242992 -0.0057183057 0.008886141
0.006790691 0.03202243 -0.012059116 -0.010619083 -0.0053935344 -0.003422082 -0.015668666 0.011166185
-0.01952822 0.01328405 -0.023726033 -0.017080734 -0.0008219052 -0.0013116718 0.0012676098 0.007890231
0.019986749 -0.012427858 -0.014474574 -0.013885333 0.011021451 0.02950456 0.01664355 0.013302749
-0.0026412255 -0.029022858 -0.018584862 0.006931426 0.0014982752 0.010555047 -0.015447129 -0.005167085
-0.015317629 0.016257636 -0.034921326 0.008370832 0.0068915673 0.0074844235 -0.012434184 -0.0072717336
-0.025513867 0.022123504 -0.019014837 0.0028229463 -0.022855522 -0.008268452 -0.009818625 -0.0132642705
-0.0382728 0.0010944464 0.015965138 0.0009176585 0.0037006522 -0.023472825 -0.029189458 -0.034655217
0.010827432 0.017375497 0.016064832 -0.027970005 0.0011089412 0.00616412 0.007883586 0.009316918
-0.00044709223 -0.021267587 0.034570917 -0.012932421 -0.004862549 -0.012811811 -0.016571756 0.0069358354
0.013357841 -0.026015412 0.012088096 0.0024120926 -0.0014628134 -0.009488334 -0.009199155 0.019935878
-0.007552937 0.011440808 -0.0035499013 -0.002793901 -0.014564039 0.008827551 -0.0006163292 0.0016501464
-0.014637572 0.012195764 -0.022902187 0.0973994 -0.000198748 -0.0017665763 0.00826984 -0.0010281538
0.015793521 -7.646883e-05 -0.013625039 -0.009072993 0.0026489666 -0.008694071 0.0092271 0.0024468496
0.026581481 -0.0017341285 -0.049057774 -0.025255583 0.010661608 -0.012855487 -0.0017053026 -0.00010894693
0.02412714 4.010921e-05 -0.011890199 0.012558983 -0.0035087257 0.004188199 -0.0039847516 0.002367977
0.02119414 0.0058286004 0.02678041 0.06638625 -0.00046013406 -0.004633772 0.013583086 -0.009782507
-0.017144741 -0.012002991 -0.0078103696 0.02745167 0.005532743 0.016807193 0.0028604802 -0.01986906
-0.014394371 -0.00092905277 0.044420794 0.00067049597 -0.011206328 -0.014489839 0.021191329 -0.0006409735
-0.07559017 0.014382806 -0.0043285894 -0.0062842695 0.015556781 -0.007966817 -0.009021716 -0.006119453
0.0055468967 -0.01389485 0.00052658253 -0.0066977646 0.0011173353 -0.017458335 0.013909063 0.0006873609
-0.0004233287 3.8740396e-05 0.0036501023 -0.002156102 -0.012727473 0.0010381088 0.0038746728 0.019061567
-0.0013833859 0.017438231 -0.01533253 0.009413616 -0.035105024 0.0026349095 -0.008391527 -0.0047772108
0.075610176 -0.015208591 0.012814456 -0.020368244 -0.0023336997 -0.0020027186 -0.004129015 0.0022101062
0.0034508929 0.009381088 -0.0030870643 -0.04097539 0.0012152743 0.011923747 0.006700831 0.017725531
0.006141326 -0.004950518 0.006650044 -0.0018671863 -0.001133044 -0.0089795785 -0.011463602 -0.013878452
0.0013215686 -0.0032920896 0.012796528 -0.0030739575 0.008923555 0.003528511 -0.0058966437 0.017049123
00000000: 80ca a63a 1135 daba 9e95 903b d1c7 debc
00000010: 979b 12bd a159 353a a8c0 6e3b ad7f 2abc
00000020: 2320 89bc af8b 923c 489c 8fbc 0b1e 99bc
00000030: 47d5 9c3a 759e 573c c3a1 443c 4282 353b
00000040: 84d4 a7bb 6365 d8bc 26af c13c 8328 323c
00000050: 5e9e 083c 6426 cfbb 046c dfbb 07bf 3cbc
00000060: d9ef 2cbc 88e1 58bc 6df6 9a3c 7440 b83c
00000070: 824f 3bbc c365 13bb 9f76 e9bb f46a dcbb
00000080: 5b01 83bb 0d18 22bb d01c b93c 0dcb 463c
00000090: c6df 563d 609c ce3b daa9 04bc d040 bd3b
000000a0: eb08 e03c 4331 aebc 5330 0bbb 16ca 6bbc
000000b0: c440 ab3a eb6f 17bc a060 bbbb 2d97 113c
000000c0: 7284 de3b f429 033d 9993 45bc aafb 2dbc
000000d0: 3fbc b0bb 0245 60bb 935b 80bc 60f2 363c
000000e0: a5f9 9fbc 58a5 593c 195d c2bc e5ec 8bbc
000000f0: 2075 57ba 67ec abba ed25 a63a 0746 013c
00000100: 40bb a33c 379e 4bbc c326 6dbc 4f7f 63bc
00000110: 5193 343c 8cb3 f13c 0e58 883c c6f3 593c
00000120: 6918 2dbb 58c1 edbc 483f 98bc 0421 e33b
00000130: c661 c43a 13ef 2c3c f415 7dbc a750 a9bb
00000140: cbf6 7abc bc2e 853c aa09 0fbd d025 093c
00000150: a8d2 e13b e53f f53b bfb8 4bbc b947 eebb
00000160: 7502 d1bc 5a3c b53c 01c5 9bbc 2e01 393b
00000170: 813b bbbc 6778 07bc 4cde 20bc 6252 59bc
00000180: f1c3 1cbd 8773 8f3a 52c9 823c 058f 703a
00000190: a486 723b 154a c0bc bb1e efbc a1f2 0dbd
000001a0: 8b65 313c 0f57 8e3c 659a 833c 5a21 e5bc
000001b0: e459 913a 63fc c93b 282a 013c fda5 183c
000001c0: b467 eab9 5d39 aebc 3c9a 0d3d 81e2 53bc
000001d0: 0456 9fbb a1e8 51bc 7ec1 87bc 0146 e33b
000001e0: d9da 5a3c 461e d5bc 260d 463c 3314 1e3b
000001f0: dfbb bfba f574 1bbc 0db8 16bc 9150 a33c
00000200: a17e f7bb 3a72 3b3c 76a5 68bb e119 37bb
00000210: 029e 6ebc 6fa1 103c 2791 21ba ba49 d83a
00000220: 6dd2 6fbc bed0 473c 5e9d bbbc 5679 c73d
00000230: 0367 50b9 778c e7ba 397e 073c 1ec3 86ba
00000240: 6a61 813c e45d a0b8 8e3b 5fbc e4a6 14bc
00000250: 499a 2d3b 9471 0ebc 432d 173c 535b 203b
00000260: 68c1 d93c b24b e3ba cef0 48bd cce4 cebc
00000270: 06ae 2e3c d29f 52bc 7684 dfba 707a e4b8
00000280: 48a6 c53c f03a 2838 1ccf 42bc 31c4 4d3c
00000290: a6f2 65bb 293d 893b 8592 82bb 1030 1b3b
000002a0: 559f ad3c d8fd be3b 9762 db3c 84f5 873d
000002b0: 263e f1b9 e6d6 97bb 988b 5e3c cf46 20bc
000002c0: 2173 8cbc 31a8 44bc 21ee ffbb 53e2 e03c
000002d0: 034c b53b 3daf 893c e576 3b3b 70c4 a2bc
000002e0: 5ed6 6bbc ad8b 73ba 94f2 353d 39c4 2f3a
000002f0: bf9a 37bc ca66 6dbc 7099 ad3c 0107 28ba
00000300: 05cf 9abd dca5 6b3c d7d6 8dbb 46ec cdbb
00000310: dee1 7e3c 4187 02bc d2cf 13bc b185 c8bb
00000320: bec2 b53b 3aa7 63bc 5b0a 0a3a ec78 dbbb
00000330: 8d73 923a c804 8fbc d7e2 633c 0230 343a
00000340: 37f2 ddb9 2f7d 2238 8e36 6f3b 644d 0dbb
00000350: e486 50bc 2711 883a 39ee 7d3b 0127 9c3c
00000360: ba52 b5ba 9fda 8e3c 4b35 7bbc 913b 1a3c
00000370: 49ca 0fbd 72ae 2c3b 9e7c 09bc 268a 9cbb
00000380: 82d9 9a3d 742d 79bc b9f3 513c 4edb a6bc
00000390: fcf0 18bb 0b40 03bb b04c 87bb 6ed7 103b
000003a0: 6028 623b 23b3 193c 5850 4abb cfd5 27bd
000003b0: d749 9f3a d25b 433c a592 db3b 2235 913c
000003c0: 2d3d c93b f437 a2bb 9de8 d93b 60bc f4ba
000003d0: a682 94ba 151f 13bc d5d1 3bbc 7262 63bc
000003e0: 7c38 ad3a 19c0 57bb 87a8 513c 7374 49bb
000003f0: 1a34 123c 973e 673b a238 c1bb 9aaa 8b3c

module.tensor_network.bias f4 [16, 1]
-0.0047760447 -0.010121405 0.009209531 -0.005953146 0.020399176 1.8208e-41 -1.4108e-41 0.0059448555
0.009253541 0.009196996 -0.010657932 -0.0066658207 5.546e-42 9.997e-42 -0.0014869763 -1.1447e-41
00000000: 5e80 9cbb 40d4 25bc 93e3 163c 9c12 c3bb
00000010: 2c1c a73c c232 0000 5427 0080 10cd c23b
00000020: 2a9c 173c ffae 163c 9b9e 2ebc f56c dabb
00000030: 760f 0000 de1b 0000 a5e6 c2ba e91f 0080

module.fully_connected_first.weight f4 [16, 16]
1.0456e-41 6.267e-42 -3.6274995e-15 1.597e-41 -3.1218134e-14 -2.2731349e-05 -1.04868e-40 -2.6300582e-18
-4.4522426e-18 -3.2652852e-17 2.727e-42 1.78e-42 -4.51e-43 5.26915e-40 -1.608e-41 -1.4294358e-17
0.13421261 0.13374919 -0.19181995 0.041134365 0.01054492 -4.0977586e-09 -0.0010164481 0.41304743
-0.103936605 -0.12567158 0.017629089 0.0012843768 0.0011271712 -5.108908e-05 -0.009657598 7.507668e-06
-0.023837077 0.12289263 -0.048728872 0.0849417 -0.4055291 7.265039e-09 0.0019099534 0.16043349
0.11646649 0.22866663 0.10681496 0.04656727 0.001915138 2.2579068e-08 0.12194745 3.6695845e-05
0.047061514 -0.08077896 0.2665692 0.033364497 -0.129337 2.252535e-14 4.079912e-05 0.08262985
-0.3406942 0.021446753 0.07254941 -0.025008041 -8.825345e-05 -1.4549528e-09 0.05641096 -1.2018724e-07
-0.29582757 -0.33019355 0.21099034 -0.33204293 0.036881812 -1.3903143e-07 0.0042536063 0.25198254
0.17164187 0.04514691 -0.027696427 -0.3487639 -0.001449878 4.1366347e-05 -0.17107469 3.849504e-05
-0.040397007 0.052090246 -0.31791312 0.022294007 0.08649328 1.0971444e-18 -0.00033636237 -0.1012526
0.23472385 -0.023697067 0.05993063 -0.050519135 0.000122004654 -4.662612e-14 0.00058272894 7.2846937e-09
-0.005675986 -0.016418263 -0.016524658 -0.020230364 -0.001566796 2.24229e-40 -4.387e-41 -0.020804835
-0.00638177 -0.029325644 -0.0008478396 -0.010321907 -3.9479e-41 -7.561e-42 0.01795143 -6.7846466e-16
-1.4924228e-05 -3.3846118e-05 -0.009542164 -4.588731e-06 -0.012692409 -2.2183e-41 -4.2370507e-10 -0.006175523
-0.0097036585 -0.006373354 -1.0657345e-05 -2.0987793e-05 1.5552129e-12 1.14349e-40 -0.00027462302 3.8599e-41
1.2500312e-19 4.731347e-19 -1.5396657e-17 1.7137674e-17 -3.1199423e-17 1.0956e-40 4.1784e-41 -2.1371177e-18
-1.1185818e-17 -4.0145714e-18 7.08443e-21 2.3054336e-18 1.47e-43 -5.3004e-41 -2.221403e-20 -4.58676e-40
0.12570566 0.05760554 0.11436146 -0.0146080265 -0.24459872 -2.6896357e-14 -0.00032328363 -0.16507351
0.19079073 0.06790131 0.043010168 -0.069639266 -1.6196147e-05 2.7298735e-10 0.096238516 1.160026e-07
0.093453676 0.0289911 -0.051485263 0.18451148 -0.08372885 9.0956305e-11 0.0003755079 -0.055067483
-0.21222417 0.37226045 0.07582534 0.14554691 0.0011833329 1.2194581e-06 0.06542904 6.0068965e-06
1.9410467e-13 3.6153912e-12 -2.9609889e-12 -5.28298e-14 -7.3223936e-12 -4.4624644e-16 -1.288138e-13 1.4472227e-13
-8.652563e-12 -2.1828657e-13 6.334115e-16 -2.7218602e-14 -2.088029e-07 4.6969e-41 8.962764e-21 7.4832255e-06
-0.05509278 -0.050422713 0.2801963 0.016024219 -0.18635596 6.1291717e-25 -0.00035558213 0.021799726
0.008265828 -0.22414188 0.031946033 0.02343528 -3.2754957e-05 -1.2441596e-14 0.05972857 -2.1521727e-08
0.058257565 0.19115233 0.36745214 0.10596452 -0.22507729 -2.2614734e-10 0.0029577082 0.018178675
0.07846062 -0.24924228 0.013212533 0.13712046 0.000872833 -8.487322e-09 0.048781842 4.7078458e-07
0.12917107 0.2306737 -0.036968928 0.060566407 0.12898274 2.647494e-15 0.0021491104 -0.2679866
0.017391637 0.004813243 -0.017020324 0.20527935 0.00060259097 -3.3312055e-09 -0.031650137 -2.4005035e-06
0.15875365 -0.1831293 -0.1193747 0.08650821 -0.10498303 7.558957e-13 0.0018218003 0.052983686
0.3129314 -0.20707764 0.018021168 0.24373387 -0.0011549506 -1.1222517e-08 0.06591359 9.373208e-08
00000000: 261d 0000 7811 0000 c7b1 82a7 852c 0000
00000010: 0f98 0ca9 33af beb7 5424 0180 6510 42a2
00000020: 3e42 a4a2 af95 16a4 9a07 0000 f604 0000
00000030: 4201 0080 d3bc 0500 d32c 0080 99d7 83a3
00000040: 086f 093e 8cf5 083e 736c 44be 827c 283d
00000050: 9ac4 2c3c 44cc 8cb1 573a 85ba f47a d33e
00000060: b7dc d4bd 0db0 00be e16a 903c 8958 a83a
00000070: 97bd 933a 7b48 56b8 e73a 1ebc 61ea fb36
00000080: f945 c3bc 22af fb3d ed97 47bd eaf5 ad3d
00000090: 83a1 cfbe f59f f931 6757 fa3a ad48 243e
000000a0: fc85 ee3d 9627 6a3e cdc1 da3d 52bd 3e3d
000000b0: 5e05 fb3a e5f3 c132 96bf f93d dde9 1938
000000c0: 93c3 403d 706f a5bd c27b 883e 36a9 083d
000000d0: eb70 04be ece3 ca28 b91f 2b38 d739 a93d
000000e0: 786f aebe 1ab1 af3c c994 943d aadd ccbc
000000f0: b614 b9b8 9af7 c7b0 2e0f 673d d10c 01b4
00000100: b676 97be 210f a9be da0d 583e 8801 aabe
00000110: 6211 173d ab48 15b4 d661 8b3b db03 813e
00000120: e3c2 2f3e f7eb 383d 9ee3 e2bc 2f91 b2be
00000130: d509 beba c780 2d38 342e 2fbe bc75 2138
00000140: 5577 25bd 955c 553d 82c5 a2be eca1 b63c
00000150: 6423 b13d f2e8 a121 cb59 b0b9 865d cfbd
00000160: 735b 703e 5a20 c2bc d279 753d 27ed 4ebd
00000170: c0dc ff38 42fc 51a9 47c2 183a d84c fa31
00000180: 9ffd b9bb 987f 86bc b85e 87bc 26ba a5bc
00000190: f35c cdba 0f71 0200 4b7a 0080 e76e aabc
000001a0: 2b1e d1bb 553c f0bc 8d41 5eba 371d 29bc
000001b0: 0d6e 0080 1415 0080 e10e 933c db8d 43a6
000001c0: 1263 7ab7 fef5 0db8 bd56 1cbc e6f8 99b6
000001d0: d2f3 4fbc d63d 0080 30ef e8af 0b5c cabb
000001e0: 18fc 1ebc 91d7 d0bb f3cc 32b7 f10e b0b7
000001f0: 73e0 da2b c23e 0100 47fb 8fb9 996b 0000
00000200: e093 1320 0ca5 0b21 5402 8ea3 3011 9e23
00000210: c7e1 0fa4 6931 0100 7a74 0000 03b1 1da2
00000220: 8857 4ea3 8e1c 94a2 34d2 051e 691c 2a22
00000230: 6900 0000 c193 0080 3bce d19e 9afe 0480
00000240: fcb8 003e c9f3 6b3d 5736 ea3d 8156 6fbc
00000250: 1678 7abe c742 f2a8 657e a9b9 0809 29be
00000260: a55e 433e d80f 8b3d 6e2b 303d 089f 8ebd
00000270: f6dc 87b7 8e13 962f b318 c53d 1b1d f933
00000280: a464 bf3d be7e ed3c 36e2 52bd 94f0 3c3e
00000290: 087a abbd d903 c82e d1df c439 718e 61bd
000002a0: 4b51 59be ec98 be3e 514a 9b3d 400a 153e
000002b0: 101a 9b3a 43ac a335 a9ff 853d d98e c936
000002c0: dd8a 5a2a 1969 7e2c 6f5c 50ac 9dec 6da9
000002d0: 21d1 00ad 2d9f 00a6 0d08 11aa 5bf1 222a
000002e0: ae37 18ad d2c4 75aa 8591 3626 d329 f5a8
000002f0: 4e33 60b4 ee82 0000 444d 291e 6b18 fb36
00000300: f8a8 61bd 0c88 4ebd e475 8f3e 3945 833c
00000310: 19d4 3ebe 4db0 3d17 6d6d bab9 5795 b23c
00000320: 656d 073c 7385 65be d8d9 023d 58fb bf3c
00000330: 5e62 09b8 bc20 60a8 f2a5 743d c7de b8b2
00000340: 7c9f 6e3d 70bd 433e b022 bc3e ed03 d93d
00000350: a97a 66be d1a6 78af 1cd6 413b 72eb 943c
00000360: f6af a03d 5e39 7fbe 6179 583c 4e69 0c3e
00000370: d5ce 643a a3cf 11b2 78cf 473d 24c0 fc34
00000380: 6c45 043e ba35 6c3e bb6c 17bd 7b14 783d
00000390: 0d14 043e a5c5 3e27 17d8 0c3b 8a35 89be
000003a0: e878 8e3c 69b8 9d3b 356e 8bbc c034 523e
000003b0: 32f7 1d3a 30eb 64b1 93a3 01bd 5618 21b6
000003c0: 5190 223e 3f86 3bbe b97a f4bd 372b b13d
000003d0: 5801 d7bd 07c4 542b 79c9 ee3a 6c05 593d
000003e0: 8b38 a03e 290c 54be 21a1 933c 5f95 793e
000003f0: b661 97ba 27cd 40b2 b4fd 863d c249 c933

module.fully_connected_first.bias f4 [16]
-9.389e-42 -0.035974536 -0.023977598 -0.022782067 0.06486424 -0.0069873584 -3.189972e-05 1.1817155e-22
6.2827904e-19 -0.018196566 -0.021171657 2.8151767e-13 -0.016416546 -0.03715788 -0.033045724 -0.029073078
00000000: 2c1a 0080 095a 13bd ab6c c4bc 75a1 babc
00000010: 8bd7 843d 36f6 e4bb 10cc 05b8 53dc 0e1b
00000020: 6c6f 3921 f710 95bc 2f70 adbc f97a 9e2a
00000030: fe7b 86bc dc32 18bd f45a 07bd aa2a eebc

module.scoring_layer.weight f4 [1, 16]
-0.00018896873 -0.32193625 -0.2969881 -0.24397819 0.27151483 -0.250932 -0.003141157 0.018319275
8.099504e-15 -0.202713 -0.23979238 6.5955106e-08 -0.19834478 -0.24518006 -0.2052045 -0.2158322
00000000: e825 46b9 d4d4 a4be d30e 98be 6bd5 79be
00000010: fe03 8b3e 297a 80be dfdb 4dbb 4e12 963c
00000020: 5fe8 1128 ff93 4fbe 228c 75be 34a3 8d33
00000030: e51a 4bbe 7b10 7bbe 2121 52be 1e03 5dbe

module.dgcnn_s_conv1.0.weight f4 [64, 6, 1, 1]
-4.956e-42 -3.3041e-41 -1.66467e-40 -5.2215e-41 -4.275e-42 -1.02798e-40 -0.029419793 0.033389013
-0.06667002 -0.2853206 0.26851323 0.07021279 -0.029761506 0.009777102 0.0005059779 0.025444392
0.021791315 2.1834774e-05 -0.0006728286 0.020209905 -0.034799326 0.16724813 0.26958317 0.0057239803
-5.2861e-41 -3.6757e-41 -1.44163e-40 9.04e-42 -1.2731e-41 7.0234e-41 0.0045514335 0.0044958154
1.6022583e-05 -0.0020973545 -0.0046479497 -7.180022e-07 -2.0834135e-15 -6.5859755e-16 1.1239144e-16 3.2013854e-15
-4.7951477e-14 -4.249333e-17 0.008355347 0.013143015 -5.2383966e-05 -0.013128146 -0.024375655 -2.9869329e-05
0.003973375 0.0065000486 -0.02107145 0.103524484 0.1227789 -0.0010763222 -0.07242984 0.24946174
-0.1272769 -0.010223149 0.039508816 0.033185333 0.00031379628 1.03910415e-05 -2.1836331e-07 -0.002676017
0.0007532353 2.5466517e-07 2.4832e-41 2.0232e-41 -6.1867e-41 3.433e-42 3.11e-42 -1.7624e-41
-2.0973669e-14 -1.4933735e-14 -1.7104849e-15 2.3197727e-14 1.8626402e-14 6.406645e-16 -4.469e-42 -2.9593e-41
-3.5586e-41 -1.2599e-41 -2.5945e-41 2.9995e-41 -0.23961683 0.07295932 -0.122944675 -0.038085774
0.02225683 0.04711453 4.9602515e-33 -1.8872297e-33 2.8167937e-34 -4.431739e-33 1.0603732e-33 -5.0635126e-34
5.234e-42 -4.7e-43 -3.2607e-41 1.7987e-41 -1.5863e-41 -5.2556e-41 -4.249e-42 -5.7949e-41
-5.6294e-41 -9.4e-42 3.0778e-41 1.11679e-40 0.006464515 -0.13103576 -0.026326552 0.0112289535
-0.04215119 -0.0064308066 0.005406754 0.0044324445 0.000965101 -0.0021140727 -0.007936794 0.0006367592
-0.005187274 -0.00048630618 1.0011253 -0.008189851 0.0012241014 -0.2898897 0.0011326842 0.0013088275
-0.0027017547 -0.09347148 0.078824125 0.002492835 -1.7453e-41 -9.432e-42 1.4543e-41 2.4513e-41
3.535e-42 -7.871e-42 -2.1586082e-17 -3.836479e-17 -6.1026474e-17 2.2496554e-18 -1.3907233e-16 1.9959186e-18
-1.0076451e-23 6.67093e-24 -5.280992e-25 -2.3078175e-24 3.004572e-24 -3.233888e-25 0.028334403 -0.037002254
-0.076429 0.10935391 -0.33802575 0.07612633 -0.011397338 -0.017941775 0.009050672 -0.0038372618
-0.00834823 -0.8044605 2.8686e-41 -3.2157e-41 -2.7802e-41 3.6728e-41 2.7e-42 5.1491e-41
-3.8211727e-15 -3.6257656e-15 5.636733e-16 -3.811497e-15 3.6834447e-15 -4.249895e-18 2.1741101e-13 2.3229135e-14
-1.6807242e-15 1.2733208e-13 -2.0724506e-13 -1.2904716e-14 -1.4474e-41 -1.9621e-41 -8.497e-42 -1.5738e-41
3.48e-42 -3.2741e-41 1.730717e-30 -2.4375077e-30 2.3787755e-31 -1.3334171e-30 -2.2524896e-30 2.3171568e-31
0.0016256227 0.0043175602 0.0018234856 -0.027320493 -0.013262781 -0.0018118839 3.0672712e-05 -1.3677692e-05
6.033849e-07 0.00087965827 0.0003266232 1.3753624e-08 6.4936954e-05 0.0004275412 -4.6703352e-09 -0.00023584855
-0.0033132622 1.0797596e-09 -0.029001933 -0.27653858 -0.14977758 -0.016863367 -0.04771536 0.04312472
0.017103966 -0.004688642 -0.0364313 -0.13121559 0.13774544 0.018391741 0.0073378477 0.015296763
0.0126014305 0.24972707 0.16293786 0.012541787 -0.017718855 0.032938715 -0.04385844 -0.00030046114
0.35345522 0.03603041 6.575904e-12 3.3822858e-12 4.116112e-13 -6.2341642e-12 8.016884e-12 1.3936949e-13
-0.03339811 -0.020951223 -0.03454006 -0.24498497 -0.20945032 0.039230857 0.25351807 -0.11243256
-0.1395749 0.028151287 -0.016607147 0.04561174 -3.1765023e-08 -9.921124e-13 -2.4423212e-13 -1.1384441e-06
00000000: d10d 0080 1b5c 0080 0bd0 0180 8e91 0080
00000010: eb0b 0080 8f1e 0180 c701 f1bc ebc2 083d
00000020: 4b8a 88bd 8b15 92be 917a 893e b9cb 8f3d
00000030: 67ce f3bc 2330 203c 9aa3 043a c270 d03c
00000040: b383 b23c d229 b737 c360 30ba 3e8f a53c
00000050: bd89 0ebd 1843 2b3e ce06 8a3e 3a90 bb3b
00000060: 5b93 0080 7766 0080 de91 0180 3319 0000
00000070: 7d23 0080 c9c3 0000 3124 953b a251 933b
00000080: 3c68 8637 c573 09bb d44d 98bb bcbc 40b5
00000090: 3220 16a7 ecd3 3da6 1994 0125 23af 6627
000000a0: 4af4 57a9 45f7 43a4 dee4 083c cd55 573c
000000b0: dbb6 5bb8 6f17 57bc 74af c7bc e58f fab7
000000c0: 1633 823b 5cfe d43b 099e acbc a504 d43d
000000d0: 8173 fb3d 6113 8dba 1956 94bd e672 7f3e
000000e0: e054 02be ff7e 27bc ffd3 213d 58ed 073d
000000f0: 0685 a439 2f55 2e37 4077 6ab4 1d60 2fbb
00000100: c474 453a eab8 8834 3945 0000 6638 0000
00000110: 76ac 0080 9209 0000 ab08 0000 2131 0080
00000120: fde9 bca8 d982 86a8 c181 f6a6 51f2 d028
00000130: 8fc5 a728 b2a8 3826 750c 0080 7e52 0080
00000140: 3363 0080 1f23 0080 5348 0080 9d53 0000
00000150: 1d5e 75be b26b 953d 6bca fbbd d4ff 1bbd
00000160: f553 b63c 2afb 403d 710a ce09 f0c8 1c89
00000170: 4335 bb07 5516 b889 4a2f b008 9a43 2888
00000180: 970e 0000 4f01 0080 e55a 0080 2432 0000
00000190: 382c 0080 8192 0080 d80b 0080 8aa1 0080
000001a0: ed9c 0080 341a 0080 cc55 0000 5137 0100
000001b0: 48d4 d33b 3d2e 06be c8aa d7bc a5f9 373c
000001c0: baa6 2cbd 84b9 d2bb 242b b13b 0a3e 913b
000001d0: d5fe 7c3a 418c 0abb 5409 02bc 30ec 263a
000001e0: 02fa a9bb e9f6 feb9 e024 803f ba2e 06bc
000001f0: 0772 a03a 6c6c 94be 9376 943a f78c ab3a
00000200: ec0f 31bb fa6d bfbd 8b6e a13d d55e 233b
00000210: a730 0080 4b1a 0080 8a28 0000 5544 0000
00000220: db09 0000 f115 0080 b218 c7a3 26ed 30a4
00000230: acb7 8ca4 cafe 2522 e856 20a5 d645 1322
00000240: 2be8 4299 d808 0119 5470 2397 098f 3298
00000250: ae77 6818 002b c896 8d1d e83c ad8f 17bd
00000260: cf86 9cbd f1f4 df3d b611 adbe 1fe8 9b3d
00000270: e6bb 3abc a1fa 92bc 4549 143c 927a 7bbb
00000280: 04c7 08bc 20f1 4dbf f74f 0000 a459 0080
00000290: 804d 0080 6266 0000 8707 0000 898f 0000
000002a0: 19ac 89a7 c9a1 82a7 c077 2226 db52 89a7
000002b0: c8b5 8427 20cb 9ca2 75c8 742a bd3a d128
000002c0: c737 f2a6 f95c 0f2a 5256 69aa 8078 68a8
000002d0: 5928 0080 b236 0080 b017 0080 df2b 0080
000002e0: b309 0000 455b 0080 9669 0c0e 0ec1 458e
000002f0: 3064 9a0c fb5b d88d 61be 368e 5f64 960c
00000300: d912 d53a 527a 8d3b 0602 ef3a 3acf dfbc
00000310: 234c 59bc bc7c edba 93a6 0038 3d79 65b7
00000320: 4bf8 2135 de98 663a a03e ab39 1449 6c32
00000330: c32e 8838 9c27 e039 b478 a0b1 1d4e 77b9
00000340: 5123 59bb aa66 9430 7695 edbc 7796 8dbe
00000350: 4b5f 19be 0b25 8abc 2e71 43bd 8ca3 303d
00000360: 9e1d 8c3c 2ea3 99bb fd38 15bd 615d 06be
00000370: 240d 0d3e 47aa 963c 5472 f03b 469f 7a3c
00000380: 3b76 4e3c 74b8 7f3e 2fd9 263e 117c 4d3c
00000390: 2227 91bc bfea 063d e8a4 33bd 3687 9db9
000003a0: 15f8 b43e a094 133d 7a5e e72c d801 6e2c
000003b0: 6db7 e72a 5c58 dbac d608 0d2d 85ea 1c2a
000003c0: 75cc 08bd e6a1 abbc e179 0dbd 57dd 7abe
000003d0: 257a 56be 89b0 203d 1fcd 813e 0b43 e6bd
000003e0: b9ec 0ebe 879d e63c b60b 88bc 60d3 3a3d
000003f0: 036e 08b3 9ea0 8bab 8f7d 89aa a4cc 98b5

module.dgcnn_s_conv1.1.weight f4 [64]
4.2385e-41 0.4283204 0.0007705501 0.2881155 -2.3503e-41 5.0451712e-05 -1.0496634e-12 -0.00059458305
0.062353406 0.15972516 4.6932496e-06 -6.893e-42 -8.4358833e-13 -2.16e-43 0.10794121 1.1219578e-31
1.1422e-41 1.8038e-41 0.00043160724 0.00063476857 0.5629808 0.007846304 1.4474e-41 -3.4753393e-13
9.352538e-19 0.39241576 0.23872516 1.7013e-41 7.4863276e-13 -6.700745e-11 6.485e-42 1.5322221e-28
0.0028818888 6.4365363e-06 -3.7373857e-06 0.15673175 0.08351512 0.24293396 0.31894335 1.477765e-08
0.30251315 0.12595491 -4.8437783e-09 -1.1231552e-05 0.18388502 4.472553e-16 -1.0411602e-29 0.40634304
0.13270542 0.23135553 -3.007017e-09 -3.1096847e-20 -2.1993e-41 -7.167815e-05 -6.4908494e-14 -1.1119719e-14
-6.7537213e-12 0.20744851 0.13345715 1.7938e-41 1.053e-41 -0.0029014638 0.29564938 2.4268e-41
00000000: 2776 0000 d04c db3e befe 493a e083 933e
00000010: 8441 0080 1d9c 5338 1cba 93ab cbdd 1bba
00000020: 4966 7f3d fe8e 233e b57a 9d36 3713 0080
00000030: f272 6dab 9a00 0080 4810 dd3d 71a3 110c
00000040: d71f 0000 4832 0000 5849 e239 9966 263a
00000050: 821f 103f c98d 003c 5928 0000 eba4 c3aa
00000060: e404 8a21 b8ea c83e 5e74 743e 6d2f 0000
00000070: adb8 522b d759 93ae 1412 0000 733b 4211
00000080: 12de 3c3b 6df9 d736 cccf 7ab6 4a7e 203e
00000090: fa09 ab3d aec3 783e 8b4c a33e cbe0 7d32
000000a0: 01e3 9a3e 53fa 003e 536e a6b1 266f 3cb7
000000b0: 5b4c 3c3e 9ee9 0026 212c 538f 320c d03e
000000c0: eee3 073e 77e8 6c3e 01a4 4eb1 c8d9 129f
000000d0: 4f3d 0080 ea51 96b8 3329 92a9 a750 48a8
000000e0: 1da0 edac 626d 543e fea8 083e 0132 0000
000000f0: 5a1d 0000 7c26 3ebb 5b5f 973e a643 0000

module.dgcnn_s_conv1.1.bias f4 [64]
-1.6709254e-12 -0.06209702 0.0051715467 -0.049346745 5.509133e-13 -0.0011481117 1.2340676e-13 -0.034474045
-0.02261751 0.009658172 -8.866526e-05 3.1291641e-13 6.04203e-13 2.9763115e-14 0.007268818 -2.4395748e-12
7.9158265e-14 3.8611787e-12 0.04699176 -0.010677379 0.0016331081 -0.030105492 -1.7259824e-13 -5.864139e-12
-1.8667458e-15 -0.08129643 0.27702507 -2.3372894e-12 -4.5359297e-13 -3.185983e-08 1.0238839e-12 -1.5367072e-14
-0.03334535 -0.010091848 -0.0016211112 -0.004863815 0.0341245 -0.06545141 -0.06557295 -3.2111078e-11
-0.05395863 -0.022457123 -3.3684654e-07 -0.011675282 0.008061809 1.4513567e-13 8.090585e-13 -0.091547735
0.015728462 -0.06663644 -5.9247424e-07 -2.2900415e-13 -2.3777256e-12 -0.00042584483 -5.4455616e-14 -2.1342856e-13
-7.230605e-15 0.044490498 0.024427589 -1.2612673e-12 -2.5144142e-12 -0.027265038 -0.06521686 3.897589e-14
00000000: 6f29 ebab 7259 7ebd 1476 a93b d01f 4abd
00000010: 7d11 1b2b 3c7c 96ba 94f1 0a2a a834 0dbd
00000020: 5b48 b9bc 4f3d 1e3c cdf1 b9b8 0228 b02a
00000030: 6a11 2a2b 890a 0629 442f ee3b 79ab 2bac
00000040: a23f b229 68da 872c 6f7a 403d 2cf0 2ebc
00000050: 040e d63a cb9f f6bc 0e54 42aa 7853 ceac
00000060: 6283 06a7 be7e a6bd 3bd6 8d3e dd78 24ac
00000070: a359 ffaa 41d6 08b3 4e19 902b 0e6a 8aa8
00000080: 2295 08bd 4758 25bc 777b d4ba a360 9fbb
00000090: 22c6 0b3d 640b 86bd 1c4b 86bd dc39 0dae
000000a0: b903 5dbd 00f8 b7bc d6d7 b4b4 af49 3fbc
000000b0: ae15 043c 8268 232a cfba 632b 617d bbbd
000000c0: fad8 803c b078 88bd 850a 1fb5 faea 80aa
000000d0: 4c51 27ac ed43 dfb9 0d3f 75a9 984c 70aa
000000e0: 4841 02a8 ab3b 363d 5e1c c83c f281 b1ab
000000f0: a9ef 30ac ee5a dfbc 6b90 85bd 2488 2f29

module.dgcnn_s_conv1.1.running_mean f4 [64]
-3.046e-42 -0.032890726 -0.0014422573 -0.019357733 5.45e-42 0.00038649185 2.9601246e-15 0.0018433193
-0.0081425365 -0.009293581 -2.3166136e-05 -5.766e-42 -1.7094533e-15 3.405e-42 -0.014959582 -1.3168276e-34
7.2e-43 1.561e-42 0.0016876429 0.0004090484 0.092350826 -0.0047168788 3.478e-42 5.99222e-18
-2.736741e-26 -0.002263955 0.2153122 6.176e-42 -3.160153e-16 1.54614e-14 -4.19e-43 5.7503896e-32
0.0013368542 -2.7700957e-05 0.00021273577 -0.015308438 -0.012696451 -0.014869248 -0.031158559 -3.8034324e-13
0.003719563 -0.014889024 9.546653e-09 -0.0011497363 -0.0035201767 -1.9532194e-19 1.7032183e-32 -0.017095812
-0.010533067 0.011069872 -6.083764e-12 2.031223e-25 -7.675e-42 0.0003009721 2.8137912e-17 -7.826944e-19
-5.3619598e-17 -0.009988954 -0.020224247 -8.05e-42 -3.533e-42 0.0021442107 -0.0075606904 2.41e-43
00000000: 7e08 0080 6db8 06bd 200a bdba 1c94 9ebc
00000010: 310f 0000 0fa2 ca39 a94c 5527 889b f13a
00000020: 4668 05bc 1b44 18bc e654 c2b7 1310 0080
00000030: b25b f6a6 7e09 0000 0919 75bc 5209 2f87
00000040: 0202 0000 5a04 0000 e633 dd3a 8c75 d639
00000050: 6e22 bd3d 0c90 9abb b209 0000 eb12 dd22
00000060: 5084 0795 dd5e 14bb cd7a 5c3e 3711 0000
00000070: a02b b6a5 9043 8b28 2b01 0080 e549 950b
00000080: 6239 af3a 5a5f e8b7 d311 5f39 3ed0 7abc
00000090: c604 50bc 259e 73bc 3c40 ffbc 3d1d d6aa
000000a0: e9c3 733b 18f1 73bc a002 2432 c0b2 96ba
000000b0: c4b2 66bb 6f98 66a0 4fdf b00a 840c 8cbc
000000c0: e392 2cbc 695e 353c ad0d d6ac 0774 7b16
000000d0: 6515 0080 cbcb 9d39 62c3 0124 b802 67a1
000000e0: d946 77a4 b6a8 23bc 52ad a5bc 7116 0080
000000f0: d909 0080 e385 0c3b abbf f7bb ac00 0000

module.dgcnn_s_conv1.1.running_var f4 [64]
6e-45 12.970616 0.17807652 8.931278 6e-45 0.0059165144 2.4097038e-25 0.10936661
2.3056724 1.605708 0.0008023119 6e-45 2.1687958e-25 6e-45 1.5028363 6e-45
6e-45 6e-45 0.34002522 0.011141877 0.56179374 1.3871129 6e-45 1.1376374e-30
1.4e-44 10.448797 0.28902674 6e-45 7.6669476e-27 6.2867146e-24 6e-45 6e-45
0.12301201 8.405517e-05 0.0011301992 1.7837698 3.542323 8.057064 10.518934 1.7124535e-20
8.900315 1.998987 1.2715635e-10 0.038172532 5.368778 2.259886e-34 6e-45 14.104221
1.8805541 8.032216 5.7718354e-17 1.36e-42 6e-45 0.004747981 5.1667783e-29 2.151139e-30
3.0464572e-27 7.684096 0.98287696 6e-45 6e-45 1.0077646 8.89595 6e-45
00000000: 0400 0000 a587 4f41 b159 363e 84e6 0e41
00000010: 0400 0000 52df c13b 4827 9516 9afb df3d
00000020: 2390 1340 d787 cd3f 3d52 523a 0400 0000
00000030: f13d 8616 0400 0000 f15c c03f 0400 0000
00000040: 0400 0000 0400 0000 c917 ae3e 6b8c 363c
00000050: b7d1 0f3f ea8c b13f 0400 0000 9c97 b80d
00000060: 0a00 0000 462e 2741 50fb 933e 0400 0000
00000070: 0bdc 1714 9b34 f318 0400 0000 0400 0000
00000080: b8ed fb3d c746 b038 3123 943a 9252 e43f
00000090: 6cb5 6240 bce9 0041 8e4d 2841 96bc a11e
000000a0: b167 0e41 cede ff3f 55cf 0b2f cd5a 1c3d
000000b0: 08cd ab40 f831 9607 0400 0000 e4aa 6141
000000c0: ffb5 f03f f583 0041 e716 8524 cb03 0000
000000d0: 0400 0000 f494 9b3b 4ffe 8210 6985 2e0e
000000e0: 7e5d 7113 1de4 f540 d39d 7b3f 0400 0000
000000f0: 0400 0000 6efe 803f d055 0e41 0400 0000

module.dgcnn_f_conv1.0.weight f4 [64, 24, 1, 1]
3.809568e-11 -5.076531e-12 -3.479364e-12 1.3392312e-11 3.836168e-12 5.123281e-12 4.536151e-12 1.331739e-11
-1.8687405e-13 -1.0494927e-11 5.3939865e-12 -2.3809399e-11 -1.9009669e-11 5.9954233e-12 -1.8389036e-12 -1.639685e-11
-4.073643e-12 4.6182363e-12 -2.0104573e-11 2.931229e-11 -2.8592342e-11 -1.8547098e-11 -4.271722e-12 2.5702015e-11
2.838173e-16 -3.976941e-16 -4.5617734e-17 1.3521834e-16 -3.7625429e-16 -3.715704e-15 4.860601e-16 -9.269162e-16
-1.1894719e-15 -7.146326e-16 4.463724e-17 1.9291702e-16 4.9025436e-16 -7.9041864e-16 -6.974577e-17 -8.227923e-17
-1.0885408e-15 2.513999e-15 9.727651e-16 8.1232736e-16 6.263414e-16 -3.698494e-16 -6.36878e-17 -3.2635753e-16
-0.00016142789 -3.057811e-06 -2.2521917e-06 0.00014662097 -6.663612e-07 -1.4772533e-05 -0.00041542744 -0.003657598
0.00079006184 -0.00012059353 -7.4911186e-05 -1.504535e-05 -0.00016387839 8.355584e-05 -0.0004209063 -0.0008903867
-0.0006209023 0.00071659253 -0.006151576 -0.0036664556 -9.9338875e-05 -0.00026987222 7.2107585e-05 -0.0003981643
1.764668e-09 -6.3929534e-08 2.3285773e-08 7.8853625e-11 1.6892359e-11 3.9173866e-11 4.246049e-06 -2.6470332e-07
4.0282147e-13 -7.2476696e-09 2.778183e-09 2.6543682e-13 -3.09381e-07 1.3620215e-07 5.2404886e-07 3.014474e-08
4.2264286e-08 -5.100641e-08 -3.9545114e-08 -1.3659837e-08 -5.6880893e-08 9.5282765e-08 2.0259877e-07 4.3813748e-07
-9.1372665e-12 -8.488746e-08 -6.4157892e-09 -3.598109e-06 1.1974619e-09 -1.2364892e-10 -2.91767e-13 4.18087e-13
2.0536294e-12 1.2296672e-12 -1.8577613e-06 -7.5719695e-06 -2.3072894e-11 -3.9857316e-08 7.1662285e-09 1.190687e-09
2.511338e-10 -7.7311504e-11 1.8161998e-11 3.8465806e-12 5.269897e-13 1.8368094e-12 -8.625119e-11 2.7119893e-09
0.005324638 0.0060237655 0.0024479905 0.0002639252 -0.008758871 -0.013222767 -0.006510474 -0.008617329
0.0012760417 -0.0023682725 -0.0032270306 0.0065011154 0.00511282 -0.011863535 -0.028976893 -0.0055540623
-0.017219054 -0.005091157 -0.019756837 -0.005699225 0.0024722542 -0.002796827 -0.0062433286 0.19666168
-0.00016263236 -3.730963e-05 -2.25523e-05 0.0069114636 -5.657469e-06 -0.0013468718 0.019922104 -0.00016889327
-0.00041793258 -0.00079894776 -3.37184e-05 -2.4668667e-05 0.0017982699 -4.2605197e-06 -0.00036504213 -0.0111240465
0.0013028434 0.0011301087 -0.008277275 -0.029955402 -0.00036235494 0.0024087024 0.00018965578 6.9810856e-05
0.0030205753 0.003475265 0.0030597725 0.008929009 -0.12936199 0.0048553166 0.007323321 0.0058594886
-0.011968389 0.010228078 -0.03133015 0.004542519 0.014893967 -0.050086662 -0.023841707 -0.0018056561
0.12951012 -0.0006857392 -0.010306664 0.15696312 -0.0018107785 -0.008485933 0.0076363822 -0.008010942
0.0001736344 -0.0035726752 -0.002107414 -0.021465652 0.00067948306 0.013230779 0.006007229 -0.013323519
0.0008136165 -0.002787529 0.00028265695 0.0015544379 0.019835718 0.002667993 0.0017110563 0.02661335
-0.0040043513 -0.024860885 -0.02310575 0.015051382 -0.009251309 0.004309984 0.0015275102 -0.0033777398
1.9997383e-15 1.389833e-13 3.626072e-15 5.3296157e-14 -1.07597226e-13 1.4051093e-14 4.904221e-13 -3.3422463e-14
9.711718e-15 -1.881517e-13 2.1003171e-14 2.0962991e-13 1.195917e-13 -1.8939914e-14 1.3130222e-14 1.6389043e-13
8.6687433e-13 -5.0986687e-14 7.5942936e-13 8.555921e-14 -1.1602268e-13 2.1419895e-14 6.6208567e-15 -2.321787e-13
-4.4144685e-06 7.253489e-07 -3.6025658e-06 -4.5941542e-11 -1.3694049e-11 7.271477e-11 -5.429741e-11 4.249962e-06
-1.1976818e-12 -1.5463725e-09 2.2849347e-10 3.39217e-11 3.1654696e-10 -4.752625e-10 -1.9027524e-05 3.503781e-11
00000000: ec8b 272e 549d b2ac a6d6 74ac 9d99 6b2d
00000010: 21f9 862c 6a42 b42c 049a 9f2c 3148 6a2d
00000020: c766 52aa f3a0 38ad b6c8 bd2c 006e d1ad
00000030: f835 a7ad f9f1 d22c be66 01ac 6c3a 90ad
00000040: 1d54 8fac 607d a22c 79d7 b0ad b4ea 002e
00000050: 3b80 fbad 5a24 a3ad 404c 96ac cb13 e22d
00000060: 0a9c a325 4a41 e5a5 ea5f 52a4 69e5 1b25
00000070: 55e5 d8a5 52df 85a7 e818 0c26 2c95 85a6
00000080: c46b aba6 94fa 4da6 5ada 4d24 0e6b 5e25
00000090: 634e 0d26 9ad2 63a6 a3d2 a0a4 16b9 bda4
000000a0: 11e0 9ca6 1927 3527 b330 8c26 2e23 6a26
000000b0: d787 3426 2334 d5a5 a4da 92a4 df21 bca5
000000c0: f844 29b9 cb34 4db6 5c24 17b6 44be 1939
000000d0: fedf 32b5 8cd7 77b7 bacd d9b9 50b4 6fbb
000000e0: 271c 4f3a 29e7 fcb8 a319 9db8 496b 7cb7
000000f0: c5d6 2bb9 b33a af38 16ad dcb9 d768 69ba
00000100: 0cc4 22ba b6d9 3b3a 2993 c9bb eb48 70bb
00000110: 2754 d0b8 a37d 8db9 7738 9738 b5c0 d0b9
00000120: bc88 f230 a249 89b3 f505 c832 a566 ad2e
00000130: 3696 942d da49 2c2e 4879 8e36 8c1c 8eb4
00000140: b1c4 e22a 2d07 f9b1 50ea 3e31 7a6d 952a
00000150: 0019 a6b4 f63e 1234 5dac 0c35 7e78 0133
00000160: 1386 3533 2412 5bb3 50d8 29b3 99ac 6ab2
00000170: 344d 74b3 419e cc33 ed89 5934 2839 eb34
00000180: 97be 20ad 604b b6b3 e171 dcb1 0b77 71b6
00000190: f293 a430 14f4 07af 0e40 a4aa b05c eb2a
000001a0: e682 102c 6e0f ad2b 3158 f9b5 b912 feb6
000001b0: 8af3 caad 952f 2bb3 d03a f631 93a5 a330
000001c0: f10f 8a2f 8202 aaae 2fc1 9f2d eb56 872c
000001d0: 9c55 142b 0441 012c 1aab bdae d25d 3a31
000001e0: 4d7a ae3b 0263 c53b 776e 203b 715f 8a39
000001f0: 5e81 0fbc 4ea4 58bc d055 d5bb b32f 0dbc
00000200: db40 a73a 0535 1bbb 977c 53bb 4f07 d53b
00000210: 7189 a73b 465f 42bc f360 edbc dafe b5bb
00000220: f90e 8dbc b8d3 a6bb 17d9 a1bc 90c0 babb
00000230: 8b05 223b f84a 37bb d694 ccbb ae61 493e
00000240: 4b88 2ab9 e97c 1cb8 b22e bdb7 8f79 e23b
00000250: 4ad5 bdb6 8589 b0ba ae33 a33c f118 31b9
00000260: f61d dbb9 7a70 51ba db6c 0db8 8fef ceb7
00000270: edb3 eb3a 96f5 8eb6 2063 bfb9 a241 36bc
00000280: 2cc4 aa3a 2820 943a 689d 07bc 0865 f5bc
00000290: 75fa bdb9 52db 1d3b 56de 4639 6b67 9238
000002a0: d8f4 453b 46c1 633b 7786 483b fa4a 123c
000002b0: 7877 04be 5919 9f3b 78f8 ef3b f400 c03b
000002c0: 1017 44bc ab93 273c 0b54 00bd 69d9 943b
000002d0: d305 743c ac27 4dbd af4f c3bc c4ab ecba
000002e0: 4d9e 043e 2ec3 33ba 48dd 28bc f1ba 203e
000002f0: a557 edba 9508 0bbc 9e3a fa3b 5340 03bc
00000300: a111 3639 8b23 6abb 8a1c 0abb bcd8 afbc
00000310: 561f 323a e9c5 583c 4ad8 c43b e44a 5abc
00000320: e148 553a faae 36bb 9331 9439 48be cb3a
00000330: 847e a23c 7fd9 2e3b 8645 e03a 3d04 da3c
00000340: ef36 83bb 0ea9 cbbc 4548 bdbc 129a 763c
00000350: cd92 17bc c43a 8d3b bd36 c83a 125d 5dbb
00000360: a918 1027 357b 1c2a 9ca4 8227 4906 7029
00000370: 9449 f2a9 3b1f 7d28 a30a 0a2b 7a85 16a9
00000380: 65f3 2e28 09d7 53aa 042e bd28 b505 6c2a
00000390: f6a5 062a 7898 aaa8 7688 6c28 3386 382a
000003a0: e100 742b a69f 65a9 a7c2 552b 87a9 c029
000003b0: 43a1 02aa eaee c028 a08a ee27 7ab4 82aa
000003c0: ff1f 94b6 99b5 4235 9cc3 71b6 940d 4aae
000003d0: 84e8 70ad c7e6 9f2e 73cd 6eae e59a 8e36
000003e0: 098f a8ab 2588 d4b0 323b 7b2f 7030 152e
000003f0: 0606 ae2f a0a3 02b0 4c9d 9fb7 1119 1a2e

module.dgcnn_f_conv1.1.weight f4 [64]
1.8699471e-07 -1.4369548e-09 -0.0010539006 1.6203461e-05 -2.9250052e-10 0.10581136 -0.002768385 0.10448259
0.00486844 1.7665596e-07 -1.2760346e-08 -0.014896433 -1.7650617e-16 0.09883834 -4.8522393e-12 2.4221697e-08
0.11278917 -0.009146087 -1.6430902e-05 -1.0406886e-27 4.291999e-06 -2.141e-42 -0.0004157441 0.071241476
-2.0403204e-06 2.10599e-05 1.0115643e-19 -9.703388e-20 6.22679e-09 4.0149897e-19 -1.1122827e-05 0.0002258901
5.3764927e-07 -5.0046194e-05 -8.4630875e-10 0.09977383 -0.0047086915 0.08979368 -1.687353e-38 0.1035478
-1.1261e-41 0.001635065 0.097158834 0.14980412 8.649532e-09 3.595219e-08 0.1430456 -0.006300295
-0.0002962102 4.076718e-07 0.07524968 -5.70076e-24 0.000251569 -4.418323e-08 -1.3815048e-07 9.381188e-12
4.06115e-08 -3.666477e-21 -1.7058486e-06 1.91337e-40 -3.8520315e-12 0.0013943197 6.8760726e-09 0.0001348568
00000000: b7c8 4834 5a7e c5b0 0923 8aba abec 8737
00000010: cacd a0af a0b3 d83d cb6d 35bb f8fa d53d
00000020: 6f87 9f3b d2ae 3d34 9838 5bb2 2b10 74bc
00000030: 6d7f 4ba5 c16b ca3d 16b9 aaac 1310 d032
00000040: 02fe e63d 78d9 15bc 18d5 89b7 58e7 a492
00000050: fe03 9036 f805 0080 3bf8 d9b9 0de7 913d
00000060: 70ec 08b6 caa9 b037 4fd9 ee1f 621d e59f
00000070: 6df3 d531 cf00 ed20 2e9c 3ab7 e9dc 6c39
00000080: fa52 1035 b1e8 51b8 afa1 68b0 3956 cc3d
00000090: 5e4b 9abb c0e5 b73d 89bc b780 de10 d43d
000000a0: 641f 0080 ad4f d63a 36fb c63d 4066 193e
000000b0: 0b99 1432 da69 1a33 8c7a 123e b472 cebb
000000c0: a94c 9bb9 fcdd da34 811c 9a3d 9889 dc98
000000d0: 05e5 8339 fac3 3db3 8456 14b4 1d09 252d
000000e0: d16c 2e33 fd83 8a9d 83f4 e4b5 5f15 0200
000000f0: 0488 87ac 9bc1 b63a 9342 ec31 5968 0d39

module.dgcnn_f_conv1.1.bias f4 [64]
-1.8473138e-07 -2.6768032e-14 0.0020377787 1.029961e-08 -7.1249283e-12 -0.044013634 -0.015331517 -0.02806685
0.009006698 6.26839e-15 -9.315184e-10 -0.029796995 -7.271972e-12 -0.010618713 4.7756715e-10 3.1141311e-12
-0.056254666 0.047836795 -0.00085577206 -5.6081953e-14 2.3426705e-11 -2.0319657e-12 -1.4066019e-06 -0.06697435
-9.970297e-13 -4.6868067e-06 -2.5135655e-14 -8.0315854e-13 -3.238672e-15 -1.3392812e-11 -0.00012892067 -0.00011609273
-7.278531e-05 -5.4997184e-08 -1.5451418e-13 -0.04146028 -0.025651539 -0.039194364 3.9977834e-12 -0.03041905
-3.0258723e-11 0.009682184 -0.038585756 0.01852115 2.5142778e-12 -1.789931e-11 -0.008019606 -0.075430036
-8.485692e-06 -6.6840395e-15 0.021046825 2.4510217e-13 -1.5558386e-06 3.2536956e-13 -1.7059939e-13 -1.3348281e-12
-1.3183635e-13 -2.0204689e-14 -4.2603412e-07 -2.865811e-12 1.6085816e-14 0.01081917 1.4992966e-07 -9.837252e-06
00000000: 935a 46b4 e11a f1a8 418c 053b 2af2 3032
00000010: a6af faac a447 34bd 0b31 7bbc 73ec e5bc
00000020: d490 133c b1d7 e127 e406 80b0 d418 f4bc
00000030: 1adc ffac 1cfa 2dbc cd45 0330 3323 5b2c
00000040: 4b6b 66bd 84f0 433d e455 60ba 1792 7ca9
00000050: 4010 ce2d a4fc 0eac 79ca bcb5 d929 89bd
00000060: c851 8cab 5d43 9db6 e066 e2a8 ac11 62ab
00000070: f45e 69a7 dd9b 6bad e12e 07b9 cf76 f3b8
00000080: 51a4 98b8 0b36 6cb3 aef7 2daa 41d2 29bd
00000090: 2d23 d2bc 458a 20bd d5a8 8c2c 5f31 f9bc
000000a0: 4b14 05ae 06a2 1e3c 190c 1ebd abb9 973c
000000b0: 34ed 302c aa71 9dad aa64 03bc 107b 9abd
000000c0: c55d 0eb7 62d1 f0a7 646a ac3c f2fa 892a
000000d0: 35d2 d0b5 b22a b72a ed13 40aa 40dc bbab
000000e0: 3e6f 14aa d7fc b5a8 afb9 e4b4 dda9 49ac
000000f0: 5ee3 9028 e342 313c 5afc 2034 ad0a 25b7
